model.pt (torch, 64613 bytes, 6 tensors)

fc1.weight f4 [50, 300]
00000000: 9a95 503d 23ca 13bd e24b 8dbc a05f 5ebd
00000010: 5576 37bc b374 d0ba 7b9b dfbc f558 08bd
00000020: b040 1c3d e277 afbc 8c86 4bbd ea8e 4a3d
00000030: 593a 94bc 9b79 a1bb 7ef3 5bbd d905 cfbc
00000040: f464 ef3c 2fb4 2dbd aa3b a13c 8bbd d7bc
00000050: 0fba 04bd 33be 8c3b dc72 7ebc c778 2abd
00000060: bce0 753b 31fe 30bd 7b16 80bc b5ee 52bd
00000070: 8572 02bb a40d 833b 78ce 3bbd 0780 613d
00000080: fa58 4e3d 58ff abbc 3c89 5c3d de1f 04bd
00000090: c1b6 dbbb 10cd 5dbd 07f1 a63c 8fb3 383d
000000a0: 31e8 1c3d 964a 8abc 7f07 35bd 7869 7b3c
000000b0: f33c 7d3c 019b 173d 349e 2b3c 719c 07bd
000000c0: 38be c1bc 0412 1dbd 2459 d2bc ea33 ac3a
000000d0: 80ba d3bc 574b 3cbd 837c 60bd 76cd f03b
000000e0: eeb7 9ebb d1cd 4c3a 49de 893b 8e43 97bb
000000f0: 2a5f 653d 1db8 d43b 32a5 aa3c e49d 603b
00000100: 8378 d83c 3008 bfbb 2391 1bbd d57a 3b3d
00000110: 007d 4a3d 48a6 f23c 681e d9bc 667b 08bd
00000120: ec42 16bd 4cb4 a8bc e36f 4ebd 93ca 84bb
00000130: 4fee a6bc 3759 2bbd 88e2 e2bc ad41 383d
00000140: 6721 b1bb 1743 46bd 85fb fe3c a084 2a3c
00000150: 4111 13bb e70f 3dbd fc40 0a3d 4b32 163d
00000160: 36d8 45bd a030 8c3c b206 2c3d 8acc f73c
00000170: c0be 3abd 165e 1c3c 7579 44bd c58b 07bd
00000180: a5e3 9e3c 1453 993c 1195 09bd a23f 73bc
00000190: d21d 66bd 6a32 073c fffa 123d 91da 143c
000001a0: 22be cbbc 8857 18bd c6ea 5d3c 2240 28bd
000001b0: 661e ccbc c879 353c 98ac 81bc 3f01 0fbd
000001c0: 3430 c9bc 3bd8 e4bc 992f b4bc 7ea2 413d
000001d0: 82fd 59bc 00bf b1bc 79d4 db3b 17ca 08bc
000001e0: 766d e8bc 1e34 0ebc 4181 f5bc 0bab e03c
000001f0: ff76 23bc 6728 6d3c 5325 a9bc 403b 8fbc
00000200: dbbd e5bc 204c 23bd 0eba 433d ef2c 593d
00000210: 1056 023c e2ae c33c 0817 4abd 71f2 3e3d
00000220: 4b29 373d b694 b1bc df8d 82bb 04c8 0abd
00000230: 523d 183d d3a2 bf3c e5f0 353d bb8a 273d
00000240: b6be a23c 99a6 a5bc 34ae 84bc 143d 613c
00000250: ff98 093d 4275 f2bc f89d 4bbd 32f2 853c
00000260: 9c02 60bd c1c5 01bd 33e4 67bd 5254 63bd
00000270: 4f61 dfba cc9b fdbc 43c7 bb3c 60b9 273c
00000280: 8e73 513d 6a9c d73c 77af 42bd 0a61 e5bc
00000290: 713a 53bc c671 193c 567b 38bd 03fd 4f3d
000002a0: 19f1 653d fed2 58bb 00ee 823c e38c 1ebc
000002b0: 6eb7 41bc 1b5b c13c 5ad0 49bd 7239 5a3d
000002c0: 6d28 123d 8a91 59bd 8404 553d fbe0 243d
000002d0: b909 22bd c493 4c3d 06fb 7d3c 011d 8e3b
000002e0: ef1e 5ebd 6bcd f53c 36f6 aa3b 354c 83bb
000002f0: 7ef6 6cbd 5425 cf3c 5b96 23bd c02d dd3c
00000300: 8609 4c3d daf3 b13a c1a7 333d a32f 213d
00000310: 7323 b2bc c3de 9dbc 3e8f 94bc c1c3 22bd
00000320: 67e2 0fbb 8751 26bd 5052 52bd 2fe9 583d
00000330: a852 5a3d b664 a7bc 7fb1 03bc dc8d 58bd
00000340: 6f37 3bbd 3387 173c 9faf 59bd 9280 59bd
00000350: e1a2 08bd c533 d73b 87b5 3a3d e536 c5bc
00000360: ddf9 a93b 1ccd 15bd 5749 4fbd 56e1 47bd
00000370: d280 edbc 89ed 4fbb e951 acbc ab25 493d
00000380: fed2 b23c 9173 adbc dd60 8cb7 290f f339
00000390: c52a 0fbc 6b5b 18bc a103 b43c 844e ddbc
000003a0: a7e0 53bb 7975 793c d36a 0a3c ee17 02bc
000003b0: 7ff6 1ebd 3170 d73c d91a 613d 9fa7 ddbc
000003c0: 0ef9 a73c 4de1 d33c ee92 11bd cc27 963c
000003d0: d301 0a3c 28b6 0dbd a928 fc3c 17b9 52bd
000003e0: 5ee0 103d 5f50 623d 8133 6cbb 6686 113d
000003f0: e198 3d3c f251 5f3c 1752 b63b d9ac bf3c
0.05092392 -0.036081444 -0.017248098 -0.054290414 -0.011197646 -0.001590392 -0.027295819 -0.03328796
0.03814763 -0.02141947 -0.04968886 0.0494527 -0.018094229 -0.0049278266 -0.05369901 -0.025271343
0.029222943 -0.042408165 0.01968177 -0.026335498 -0.032404 0.0042951345 -0.015530314 -0.04161909
0.0037517985 -0.043211166 -0.01563572 -0.05149718 -0.0019904685 0.003999429 -0.0458512 0.055053737
0.050377823 -0.02099578 0.053841814 -0.032256953 -0.0067051356 -0.05415064 0.020378603 0.045093115
0.038307372 -0.016881268 -0.044196602 0.01534497 0.015456426 0.037013058 0.01047473 -0.03310818
-0.023650274 -0.03834726 -0.025677271 0.001313803 -0.025845766 -0.045970287 -0.054806244 0.0073487116
-0.0048437035 0.00078126515 0.0042074067 -0.0046162074 0.05599896 0.0064916746 0.020830724 0.0034273798
0.026424652 -0.0058298334 -0.03798021 0.04577144 0.049435616 0.029620305 -0.026503757 -0.033320807
-0.036684915 -0.020593785 -0.050399672 -0.004052469 -0.020377306 -0.04183313 -0.02769591 0.04498451
-0.005405593 -0.048403826 0.031125793 0.010407597 -0.0022440704 -0.046157744 0.03375338 0.036669057
-0.048301898 0.01711303 0.041998573 0.030248899 -0.04559207 0.009543916 -0.047967393 -0.03309228
0.019395659 0.018716373 -0.033589426 -0.014846714 -0.056180783 0.008251766 0.0358839 0.009085313
-0.024870936 -0.03719285 0.013544744 -0.041076787 -0.024916839 0.011076398 -0.01582937 -0.034913298
-0.024559118 -0.027935138 -0.021995353 0.047274105 -0.01330507 -0.021697521 0.0067086783 -0.008348963
-0.028372508 -0.008679418 -0.02996886 0.02742531 -0.009977101 0.014474965 -0.02064768 -0.017484307
-0.028044632 -0.03986752 0.047784857 0.053021368 0.007955089 0.023887102 -0.04933837 0.04661793
0.044717114 -0.021677356 -0.0039841975 -0.033882156 0.037167855 0.02339307 0.044419188 0.040903788
0.019866329 -0.020221042 -0.016196348 0.013747472 0.033593174 -0.029596929 -0.049711198 0.01635084
-0.05468999 -0.031682733 -0.056614112 -0.055500336 -0.001704255 -0.030958079 0.022922164 0.010237068
0.051135592 0.026319701 -0.047530618 -0.028000373 -0.0128923515 0.009365505 -0.045039497 0.0507784
0.05613813 -0.0033084746 0.015982628 -0.009677145 -0.011823518 0.023603013 -0.049270965 0.05327744
0.035683084 -0.053117312 0.05200626 0.04025362 -0.039560053 0.049945608 0.015501743 0.0043369536
-0.05422872 0.030005177 0.005217339 -0.0040068873 -0.05785226 0.025286354 -0.039938312 0.026999354
0.04981377 0.0013576702 0.043861154 0.03935207 -0.02174542 -0.01927126 -0.01813471 -0.039737467
-0.0021955015 -0.040605094 -0.05134803 0.052956756 0.053301483 -0.020433765 -0.008037924 -0.052869663
-0.045707162 0.009248543 -0.053146 -0.05310113 -0.03335846 0.0065674507 0.045583274 -0.024074027
0.0051872567 -0.03657256 -0.05060705 -0.04879888 -0.02899209 -0.0031727275 -0.021035152 0.04910819
0.021829125 -0.02117327 -1.6734406e-05 0.00046359867 -0.008738224 -0.0092991395 0.021974387 -0.027014978
-0.0032329948 0.015225762 0.00844832 -0.007940276 -0.038809296 0.026298614 0.054957245 -0.027057467
0.0205045 0.025864268 -0.035540514 0.018329524 0.0084232865 -0.034597546 0.030781107 -0.051446047
0.035370223 0.05525243 -0.003604144 0.035528563 0.011572094 0.013630377 0.005563985 0.02339785

fc1.bias f4 [50]
00000000: 4e51 c2bc 4325 893c a636 c4bc f9fa c53b
00000010: 4edf 5c3d 96a8 2dbd d96b eabb 533d 37bd
00000020: a80e 623c 5715 43bc 1a19 513b 8be7 62bd
00000030: 59c8 3d3d 5cdb 293d 9d56 973c 2ab6 383d
00000040: db69 95bc 729b 0ebd e919 5c3d ce31 373d
00000050: 6a6b ba3c 4f5f 64bc e2ac 2b3c 0d84 8bbc
00000060: 7a68 b4bb fc77 5f3d 3305 1bbd cb82 83bb
00000070: 98d2 963c 8090 0e3d 12e6 c33c 0d08 17bd
00000080: 96c7 f3bb b9ce 10bd 00ee ba3c 2209 dc3c
00000090: 4b07 7d3d 6dec ab3c 3260 42bd 4392 7dbd
000000a0: f687 223d b888 aabb d274 313c 857b 75bd
000000b0: 1988 9bbc 99c3 93bc e3cb 093d 5727 cc3c
000000c0: fb1e f43c 7b89 3bbd
-0.02372041 0.0167414 -0.02395184 0.006041881 0.053923897 -0.042397104 -0.0071539697 -0.044736218
0.01379744 -0.011906943 0.003190583 -0.055396598 0.046333645 0.041468963 0.018473918 0.0450956
-0.018238952 -0.034816213 0.053735647 0.04472523 0.022756297 -0.013938739 0.01047823 -0.01703074
-0.0055056186 0.054557785 -0.037846755 -0.0040133945 0.018410966 0.034805775 0.023913417 -0.036872912
-0.007439564 -0.035353396 0.022818565 0.026859824 0.061774533 0.02098676 -0.04745502 -0.061907064
0.039680444 -0.0052042864 0.010831075 -0.05993225 -0.018985795 -0.018037604 0.033641707 0.024921102
0.029799929 -0.04578541

fc2.weight f4 [10, 50]
00000000: c4ff d83d a4ca 20bd fcbc 01be 2a7c 0a3e
00000010: 3707 743d dbfc 20bd 22c6 03be 11b2 98bd
00000020: 6818 023e 2292 e13d a8af aa3d f21f 60bd
00000030: 659d e6bd 2532 6bbd 32ff eebc 6bca 613d
00000040: 42a9 233d 34f4 603d 8290 2a3d 209f a7bc
00000050: 8094 ad3d b061 893d 6b0b d9bd 9235 153b
00000060: 0d21 293b 1f10 50bc efb3 c13d 876f 1bbd
00000070: dc80 5c3d 9d77 d0bd b813 b63d de8d 88bd
00000080: 5d88 613b 20d7 09be 850d a63b d6e0 d03c
00000090: dadf b0bd 13c7 b13d ca82 673c bded fc3c
000000a0: db40 01be c078 3f3d 4d0f f23d f7a6 bebd
000000b0: 323a 9abd 9163 d8bd 45f0 bfbc 208d f6bc
000000c0: 10be b13c 720c 07be 809c e43d 47aa 913c
000000d0: 2e05 fd3d da53 9d3d acdb b23d fd11 673d
000000e0: 7b76 96bc f0bd 193d 548e c73d 7782 063e
000000f0: fd2e 0a3e 657e 8abc b22e e73d fc4a 2a3d
00000100: b2fb aabd 9d45 c33d 0e24 dcbd 50c3 1e3d
00000110: 626f 37bc 88f8 553c 880a 55bd aba6 00be
00000120: 431b ca3d ecaa ccbd 0aea 00be e3e6 2abd
00000130: 9dc5 23bd 42da 31bd 2c51 02be 1257 443c
00000140: dad6 053e 7795 753d 5120 123e 5c18 d9bd
00000150: 793a a43d a16f 90bc f538 103e 6571 61bd
00000160: 4a6d f33d 52c8 1dbd f003 e93d 450c afbd
00000170: 0a27 0b3e 6e83 25bd e499 bfbd a1a9 f13d
00000180: e2f7 6d3c ff3f 8ebd 9609 01be 6851 c13d
00000190: c393 e63d 81e4 b03d d440 913d a44b 023e
000001a0: ebd0 a4bd b6bc 04be c4f4 d6bd 0b5a 0cbe
000001b0: 719f 593c a735 b43d d030 003c 3c0b f6bd
000001c0: f8c9 9bbb 5a23 053e e216 b43d 9e87 97bd
000001d0: 399b b1bc 5946 a0bd 6df5 0cbe 2cae 85bd
000001e0: 88bd 82bc 226d 05be ba30 08bd f837 c7bc
000001f0: 5240 32bd 8b49 e8bd 5bb0 9d3d 4875 a2bd
00000200: 31f8 fa3d 53a5 543a 7fc0 b9bd 7a71 1c3c
00000210: 3138 b3bd 0d92 d43d f255 e2bd 2214 2f3d
00000220: 8b57 963d 6834 a43c cf68 4c3a 7068 97bc
00000230: f0d5 7e3c 5c34 07be 9953 dfbd 19ac 6dbd
00000240: ca14 f73d 5d4b c9bd 4c1c f5bd 1a19 19bd
00000250: a9e0 23bd dd04 79bd 4ddf fe3c e08c 163d
00000260: 00e9 53bd 838c 8a3d fff2 bd3d 874f 67bc
00000270: 9115 aebc 888b 86bc 7147 b93d c86b 063c
00000280: 5f10 0b3e 8ed1 a8bc 35a3 e0bd cde1 11bc
00000290: 02ef 93bd 0f55 01be 115f 2f3d c312 003e
000002a0: a602 9bba 614a 80bc e5c2 643d b5c9 c83c
000002b0: ef31 c1bd d678 01be bb90 f33d e288 463d
000002c0: 4e1b 96bd 5d15 ef3d 51cb cf3d 418a e13d
000002d0: de57 a93d b2f2 d3bd da6a b0bc daf7 1d3b
000002e0: 801b fbbd 0f65 cfbc 0a77 09be 2840 bfbd
000002f0: fa06 b9bd d334 bfbc d7dc 5bbd 5009 673d
00000300: 626f 66bc f8db 233d d83e a8bd f151 9abd
00000310: 66fe 08be 92ac fbbc 0b3c 37bd b7d3 e3bd
00000320: 709d a73d 6192 af3c e26e 7d3d 044c 123e
00000330: 62be 8aba 476c a43b 34b1 b03d 7529 9fbd
00000340: 71aa 0b3e 7fcf 013e fc44 b3bd 45bc 0f3c
00000350: 6693 98bd 0e4b 88bd de1e db3d 55ba f43d
00000360: e8b6 903c 0697 9cbd a9d0 4c3c 8732 af3d
00000370: 1046 473d e231 253d 8d59 8b3d 1105 be3d
00000380: cf36 85bd 58d5 353d 0717 123e 0546 fc3d
00000390: 0ba2 c2bd 5df3 08be 20ba 0d3e f84c a93c
000003a0: f5e1 293d 0c60 7dbd 5196 8b3d d015 50bd
000003b0: 019c e83d 479b d5b9 bd41 a6bd 8a6e 9cbc
000003c0: 5ec7 1ebd 759e 343d 254d 0f3e de59 49bc
000003d0: 72c1 f13c 9566 913d 1699 e4bd 7e97 29bd
000003e0: d51f afbd ba29 59bd 56fa 7abc affa 883d
000003f0: ed03 7f3d 1ee8 c03b 5cef 153d 7083 c7bd
0.105956584 -0.039255753 -0.12669748 0.13523927 0.059577193 -0.03930364 -0.1286855 -0.074558385
0.12704623 0.11014201 0.08334285 -0.054717965 -0.112604894 -0.05742087 -0.029174421 0.05512468
0.03995634 0.05492039 0.04164172 -0.020461619 0.0847559 0.067080855 -0.10597881 0.0022767526
0.0025807053 -0.012699156 0.09458148 -0.037948158 0.053833827 -0.101790644 0.0889048 -0.06667684
0.0034413554 -0.1346097 0.0050675296 0.025497835 -0.08636446 0.086805485 0.014130304 0.030875081
-0.12622397 0.046746016 0.11819325 -0.0930919 -0.07530631 -0.10565866 -0.02343 -0.03009659
0.021697074 -0.13188341 0.111626625 0.01778139 0.123545036 0.07682009 0.08733305 0.05641364
-0.018367043 0.037534654 0.09743944 0.13135706 0.13494487 -0.016905973 0.11288203 0.041575417
-0.08348788 0.09534762 -0.107490644 0.038760483 -0.011195989 0.013059743 -0.052011997 -0.12563579
0.09868481 -0.09993538 -0.12589279 -0.041724097 -0.03998338 -0.043421037 -0.12726277 0.01198365
0.1307024 0.059956994 0.1427014 -0.10600349 0.08018965 -0.017631354 0.14084227 -0.055039782
0.118860796 -0.03852112 0.11377704 -0.08547262 0.13589111 -0.040408544 -0.09355524 0.11799932
0.014524432 -0.069458 -0.12601313 0.09439355 0.11258652 0.08637334 0.07092443 0.12724167
-0.080476604 -0.12962613 -0.10495904 -0.13706224 0.013282643 0.08799296 0.007824138 -0.120138615
-0.004754301 0.13001767 0.08793427 -0.07398914 -0.021680461 -0.07825918 -0.13765498 -0.06527361
-0.015959516 -0.13029912 -0.033249594 -0.02431868 -0.043518372 -0.11342152 0.07699653 -0.07932526
0.1225437 0.00081117934 -0.09069919 0.009548539 -0.08750952 0.103794195 -0.11051549 0.04274381
0.07340916 0.02004452 0.00077976 -0.018482417 0.015553936 -0.13203567 -0.10904617 -0.058025453
0.12064512 -0.098288275 -0.11968288 -0.037377454 -0.040009174 -0.060795654 0.031112337 0.036755443
-0.051735878 0.06765082 0.092748635 -0.014118082 -0.021250518 -0.016423956 0.090468295 0.008204408
0.13580464 -0.020607736 -0.10968629 -0.008903933 -0.072233215 -0.12630104 0.04281527 0.12507157
-0.0011826351 -0.015660467 0.05584993 0.024510244 -0.09433352 -0.12643752 0.118928395 0.048470385
-0.07329427 0.116739966 0.101462014 0.11012698 0.082687125 -0.10349025 -0.021535326 0.002410403
-0.122611046 -0.025316743 -0.13424316 -0.09338409 -0.09034534 -0.023340618 -0.053677406 0.056405365
-0.014064642 0.0400047 -0.082151115 -0.0753516 -0.13378295 -0.030721936 -0.044734996 -0.11124366
0.08184326 0.021432104 0.061873324 0.1428681 -0.0010585303 0.0050177905 0.08627549 -0.07771579
0.13639237 0.1267681 -0.08753392 0.008772914 -0.07449989 -0.066549405 0.10699247 0.119496025
0.017665341 -0.07645993 0.01250092 0.08554559 0.0486508 0.040330775 0.0680419 0.0927831
-0.065045945 0.044392914 0.14266597 0.12318043 -0.095035635 -0.13374086 0.13840532 0.020666584
0.041475255 -0.061859176 0.0681578 -0.050802052 0.113578804 -0.00040742217 -0.08118007 -0.019095678
-0.03876435 0.04409643 0.13994272 -0.012289492 0.029511187 0.07099644 -0.11162011 -0.04140424
-0.08550993 -0.05301831 -0.015318474 0.06688439 0.062259603 0.0058870455 0.036605224 -0.097418666

fc2.bias f4 [10]
00000000: f748 e3bd b55b 35ba eafe 9dbc 6d2f 873d
00000010: 0736 4a3e be9f 0fbe 810d f23d 2f24 f8bc
00000020: 2c44 d6bd 9ec7 b63d
-0.11097901 -0.00069182675 -0.019286592 0.066008426 0.19747172 -0.1402578 0.11818982 -0.030290691
-0.104622215 0.08924793

fc3.weight f4 [4, 10]
00000000: 106f 6e3e 0fb2 88be 2107 823c 192e dbbd
00000010: defc 9ebe 7741 973e 8788 90be 7b19 673e
00000020: 3c7f 8dbe 9454 e6bd 7f11 70be 363c 8e3e
00000030: 6f1f fe3d f2c7 6abe 25c4 393e 5ae9 a13e
00000040: 6466 74be bbb3 ce3c a0b0 d3bd 8c6c 88be
00000050: 1460 e0bd 8294 6cbe 612f 1ebe c446 c5bd
00000060: 858c 9e3e e818 4c3e b89c 613e f6c8 8dbe
00000070: db31 483e db2b e13c 19b0 4b3d 9472 893e
00000080: dee3 b9bd b073 313e 98e9 15be 79d9 25bd
00000090: d122 e8bd 6e15 abbb 276e 443e 2007 87be
0.23284554 -0.26698348 0.01587254 -0.10702152 -0.31052297 0.29542133 -0.28229162 0.22568314
-0.27636135 -0.11246601 -0.23444174 0.27780312 0.12408339 -0.22927836 0.1814123 0.31623346
-0.23867184 0.025232187 -0.10336423 -0.26645315 -0.109558254 -0.23103526 -0.15447761 -0.09632638
0.30966583 0.19931376 0.2203244 -0.27692384 0.19550268 0.027486732 0.049728487 0.2684523
-0.09076665 0.17329288 -0.1463989 -0.0404906 -0.11334766 -0.0052210605 0.19182645 -0.26372623

fc3.bias f4 [4]
00000000: 508a 0dbf 0bb0 c13e d818 d43e 07ef 57be
-0.55289173 0.37829623 0.41425204 -0.21087275
